…
=output)\n","\n","model.compile(loss='categorical_crossentropy', optimizer=Adam(lr=0.001), metrics=['acc'])\n","\n","model.summary()"],"execution_count":31,"outputs":[{"output_type":"stream","text":["Model: \"model\"\n","_________________________________________________________________\n","Layer (type)                 Output Shape              Param #   \n","=================================================================\n","input_1 (InputLayer)         [(None, 28, 28, 1)]       0         \n","_________________________________________________________________\n","conv2d (Conv2D)              (None, 28, 28, 32)        320       \n","_________________________________________________________________\n","max_pooling2d (MaxPooling2D) (None, 14, 14, 32)        0         \n","_________________________________________________________________\n","conv2d_1 (Conv2D)            (None, 14, 14, 64)        18496     \n","_________________________________________________________________\n","max_pooling2d_1 (MaxPooling2 (None, 7, 7, 64)          0         \n","_________________________________________________________________\n","conv2d_2 (Conv2D)            (None, 7, 7, 32)          18464     \n","_________________________________________________________________\n","max_pooling2d_2 (MaxPooling2 (None, 3, 3, 32)          0         \n","_________________________________________________________________\n","flatten (Flatten)            (None, 288)               0         \n","_________________________________________________________________\n","dense (Dense)                (None, 512)               147968    \n","_________________________________________________________________\n","dropout (Dropout)            (None, 512)               0         \n","_________________________________________________________________\n","dense_1 (Dense)              (None, 24)                12312     \n","=================================================================\n","Total params: 197,560\n","Trainable params: 197,560\n","Non-trainable params: 0\n","_________________________________________________________________\n"],"name":"stdout"},{"output_type":"stream","text":["/usr/local/lib/python3.7/dist-packages/keras/optimizer_v2/optimizer_v2.py:356: UserWarning: The `lr` argument is dep
…
